…
[2024-07-07 15:46:16,503][1047079] WARNING! It is generally recommended to enable Fixed KL loss (https://arxiv.org/pdf/1707.06347.pdf) for continuous action tasks to avoid potential numerical issues. I.e. set --kl_loss_coeff=0.1
[2024-07-07 15:46:16,503][1047079] Setting fixed seed 2222
[2024-07-07 15:46:16,505][1047079] Using GPUs [0] for process 0 (actually maps to GPUs [0])
[2024-07-07 15:46:16,505][1047079] Initializing actor-critic model on device cuda:0
[2024-07-07 15:46:16,804][1047079] Created Actor Critic model with architecture:
[2024-07-07 15:46:16,805][1047079] ActorCriticSeparateWeights(
  (obs_normalizer): ObservationNormalizer()
  (actor_encoder): QuadMultiHeadAttentionEncoder(
    (self_embed_layer): Sequential(
      (0): Linear(in_features=19, out_features=256, bias=True)
      (1): Tanh()
      (2): Linear(in_features=256, out_features=256, bias=True)
      (3): Tanh()
    )
    (neighbor_embed_layer): Sequential(
      (0): Linear(in_features=36, out_features=256, bias=True)
      (1): Tanh()
      (2): Linear(in_features=256, out_features=256, bias=True)
      (3): Tanh()
    )
    (obstacle_embed_layer): Sequential(
      (0): Linear(in_features=9, out_features=256, bias=True)
      (1): Tanh()
      (2): Linear(in_features=256, out_features=256, bias=True)
      (3): Tanh()
    )
    (attention_layer): MultiHeadAttention(
      (w_qs): Linear(in_features=256, out_features=1024, bias=False)
      (w_ks): Linear(in_features=256, out_features=1024, bias=False)
      (w_vs): Linear(in_features=256, out_features=1024, bias=False)
      (attention): ScaledDotProductAttention()
      (fc): Linear(in_features=1024, out_features=256, bias=False)
      (layer_norm): LayerNorm((256,), eps=1e-06, elementwise_affine=True)
    )
    (feed_forward): Sequential(
      (0): Linear(in_features=768, out_features=512, bias=True)
      (1): Tanh()
    )
  )
  (actor_core): ModelCoreIdentity()
  (critic_encoder): QuadMultiHeadAttentionEncoder(
    (self_embed_layer): Sequential(
      (0): Linear(in_features=19, out_features=256, bias=True)
      (1): Tanh()
      (2): Linear(in_features=256, out_features=256, bias=True)
      (3): Tanh()
    )
    (neighbor_embed_layer): Sequential(
      (0): Linear(in_features=36, out_features=256, bias=True)
      (1): Tanh()
      (2): Linear(in_features=256, out_features=256, bias=True)
      (3): Tanh()
    )
    (obstacle_embed_layer): Sequential(
      (0): Linear(in_features=9, out_features=256, bias=True)
      (1): Tanh()
      (2): Linear(in_features=256, out_features=256, bias=True)
      (3): Tanh()
    )
    (attention_layer): MultiHeadAttention(
      (w_qs): Linear(in_features=256, out_features=1024, bias=False)
      (w_ks): Linear(in_features=256, out_features=1024, bias=False)
      (w_vs): Linear(in_features=256, out_features=1024, bias=False)
      (attention): ScaledDotProductAttention()
      (fc): Linear(in_features=1024, out_features=256, bias=False)
      (layer_norm): LayerNorm((256,), eps=1e-06, elementwise_affine=True)
    )
    (feed_forward): Sequential(
      (0): Linear(in_features=768, out_features=512, bias=True)
      (1): Tanh()
    )
  )
  (critic_core): ModelCoreIdentity()
  (actor_decoder): MlpDecoder(
    (mlp): Identity()
  )
  (critic_decoder): MlpDecoder(
    (mlp): Identity()
  )
  (critic_linear): Linear(in_features=512, out_features=1, bias=True)
  (action_parameterization): ActionParameterizationContinuousNonAdaptiveStddev(
    (distribution_linear): Linear(in_features=512, out_features=4, bias=True)
  )
)
[2024-07-07 15:46:17,019][1047155] Worker 10 uses CPU cores [10]
[2024-07-07 15:46:17,091][1047159] Worker 6 uses CPU cores [6]
[2024-07-07 15:46:17,153][1047330] Worker 21 uses CPU cores [5]
[2024-07-07 15:46:17,255][1047482] Worker 30 uses CPU cores [14]
[2024-07-07 15:46:17,407][1047270] Worker 15 uses CPU cores [15]
[2024-07-07 15:46:17,411][1047153] Worker 14 uses CPU cores [14]
…
