…
[2024-07-08 11:58:14,930][230478] WARNING! It is generally recommended to enable Fixed KL loss (https://arxiv.org/pdf/1707.06347.pdf) for continuous action tasks to avoid potential numerical issues. I.e. set --kl_loss_coeff=0.1
[2024-07-08 11:58:14,930][230478] Setting fixed seed 0
[2024-07-08 11:58:14,933][230478] Using GPUs [0] for process 0 (actually maps to GPUs [0])
[2024-07-08 11:58:14,934][230478] Initializing actor-critic model on device cuda:0
[2024-07-08 11:58:15,285][230478] Created Actor Critic model with architecture:
[2024-07-08 11:58:15,286][230478] ActorCriticSeparateWeights(
  (obs_normalizer): ObservationNormalizer()
  (actor_encoder): QuadMultiHeadAttentionEncoder(
    (self_embed_layer): Sequential(
      (0): Linear(in_features=19, out_features=256, bias=True)
      (1): Tanh()
      (2): Linear(in_features=256, out_features=256, bias=True)
      (3): Tanh()
    )
    (neighbor_embed_layer): Sequential(
      (0): Linear(in_features=12, out_features=256, bias=True)
      (1): Tanh()
      (2): Linear(in_features=256, out_features=256, bias=True)
      (3): Tanh()
    )
    (obstacle_embed_layer): Sequential(
      (0): Linear(in_features=9, out_features=256, bias=True)
      (1): Tanh()
      (2): Linear(in_features=256, out_features=256, bias=True)
      (3): Tanh()
    )
    (attention_layer): MultiHeadAttention(
      (w_qs): Linear(in_features=256, out_features=1024, bias=False)
      (w_ks): Linear(in_features=256, out_features=1024, bias=False)
      (w_vs): Linear(in_features=256, out_features=1024, bias=False)
      (attention): ScaledDotProductAttention()
      (fc): Linear(in_features=1024, out_features=256, bias=False)
      (layer_norm): LayerNorm((256,), eps=1e-06, elementwise_affine=True)
    )
    (feed_forward): Sequential(
      (0): Linear(in_features=768, out_features=512, bias=True)
      (1): Tanh()
    )
  )
  (actor_core): ModelCoreIdentity()
  (critic_encoder): QuadMultiHeadAttentionEncoder(
    (self_embed_layer): Sequential(
      (0): Linear(in_features=19, out_features=256, bias=True)
      (1): Tanh()
      (2): Linear(in_features=256, out_features=256, bias=True)
      (3): Tanh()
    )
    (neighbor_embed_layer): Sequential(
      (0): Linear(in_features=12, out_features=256, bias=True)
      (1): Tanh()
      (2): Linear(in_features=256, out_features=256, bias=True)
      (3): Tanh()
    )
    (obstacle_embed_layer): Sequential(
      (0): Linear(in_features=9, out_features=256, bias=True)
      (1): Tanh()
      (2): Linear(in_features=256, out_features=256, bias=True)
      (3): Tanh()
    )
    (attention_layer): MultiHeadAttention(
      (w_qs): Linear(in_features=256, out_features=1024, bias=False)
      (w_ks): Linear(in_features=256, out_features=1024, bias=False)
      (w_vs): Linear(in_features=256, out_features=1024, bias=False)
      (attention): ScaledDotProductAttention()
      (fc): Linear(in_features=1024, out_features=256, bias=False)
      (layer_norm): LayerNorm((256,), eps=1e-06, elementwise_affine=True)
    )
    (feed_forward): Sequential(
      (0): Linear(in_features=768, out_features=512, bias=True)
      (1): Tanh()
    )
  )
  (critic_core): ModelCoreIdentity()
  (actor_decoder): MlpDecoder(
    (mlp): Identity()
  )
  (critic_decoder): MlpDecoder(
    (mlp): Identity()
  )
  (critic_linear): Linear(in_features=512, out_features=1, bias=True)
  (action_parameterization): ActionParameterizationContinuousNonAdaptiveStddev(
    (distribution_linear): Linear(in_features=512, out_features=4, bias=True)
  )
)
[2024-07-08 11:58:16,047][230507] Worker 0 uses CPU cores [0]
[2024-07-08 11:58:16,470][230538] Worker 7 uses CPU cores [7]
[2024-07-08 11:58:16,542][230548] Worker 20 uses CPU cores [4]
[2024-07-08 11:58:16,595][230550] Worker 22 uses CPU cores [6]
[2024-07-08 11:58:16,743][230537] Worker 6 uses CPU cores [6]
[2024-07-08 11:58:16,804][230540] Worker 9 uses CPU cores [1]
…
