…
[2024-07-07 15:41:04,211][1043860] WARNING! It is generally recommended to enable Fixed KL loss (https://arxiv.org/pdf/1707.06347.pdf) for continuous action tasks to avoid potential numerical issues. I.e. set --kl_loss_coeff=0.1
[2024-07-07 15:41:04,211][1043860] Setting fixed seed 1111
[2024-07-07 15:41:04,213][1043860] Using GPUs [0] for process 0 (actually maps to GPUs [1])
[2024-07-07 15:41:04,213][1043860] Initializing actor-critic model on device cuda:0
[2024-07-07 15:41:04,308][1043860] Created Actor Critic model with architecture:
[2024-07-07 15:41:04,315][1043860] ActorCriticSeparateWeights(
  (obs_normalizer): ObservationNormalizer()
  (actor_encoder): QuadMultiHeadAttentionEncoder(
    (self_embed_layer): Sequential(
      (0): Linear(in_features=19, out_features=256, bias=True)
      (1): Tanh()
      (2): Linear(in_features=256, out_features=256, bias=True)
      (3): Tanh()
    )
    (neighbor_embed_layer): Sequential(
      (0): Linear(in_features=36, out_features=256, bias=True)
      (1): Tanh()
      (2): Linear(in_features=256, out_features=256, bias=True)
      (3): Tanh()
    )
    (obstacle_embed_layer): Sequential(
      (0): Linear(in_features=9, out_features=256, bias=True)
      (1): Tanh()
      (2): Linear(in_features=256, out_features=256, bias=True)
      (3): Tanh()
    )
    (attention_layer): MultiHeadAttention(
      (w_qs): Linear(in_features=256, out_features=1024, bias=False)
      (w_ks): Linear(in_features=256, out_features=1024, bias=False)
      (w_vs): Linear(in_features=256, out_features=1024, bias=False)
      (attention): ScaledDotProductAttention()
      (fc): Linear(in_features=1024, out_features=256, bias=False)
      (layer_norm): LayerNorm((256,), eps=1e-06, elementwise_affine=True)
    )
    (feed_forward): Sequential(
      (0): Linear(in_features=768, out_features=512, bias=True)
      (1): Tanh()
    )
  )
  (actor_core): ModelCoreIdentity()
  (critic_encoder): QuadMultiHeadAttentionEncoder(
    (self_embed_layer): Sequential(
      (0): Linear(in_features=19, out_features=256, bias=True)
      (1): Tanh()
      (2): Linear(in_features=256, out_features=256, bias=True)
      (3): Tanh()
    )
    (neighbor_embed_layer): Sequential(
      (0): Linear(in_features=36, out_features=256, bias=True)
      (1): Tanh()
      (2): Linear(in_features=256, out_features=256, bias=True)
      (3): Tanh()
    )
    (obstacle_embed_layer): Sequential(
      (0): Linear(in_features=9, out_features=256, bias=True)
      (1): Tanh()
      (2): Linear(in_features=256, out_features=256, bias=True)
      (3): Tanh()
    )
    (attention_layer): MultiHeadAttention(
      (w_qs): Linear(in_features=256, out_features=1024, bias=False)
      (w_ks): Linear(in_features=256, out_features=1024, bias=False)
      (w_vs): Linear(in_features=256, out_features=1024, bias=False)
      (attention): ScaledDotProductAttention()
      (fc): Linear(in_features=1024, out_features=256, bias=False)
      (layer_norm): LayerNorm((256,), eps=1e-06, elementwise_affine=True)
    )
    (feed_forward): Sequential(
      (0): Linear(in_features=768, out_features=512, bias=True)
      (1): Tanh()
    )
  )
  (critic_core): ModelCoreIdentity()
  (actor_decoder): MlpDecoder(
    (mlp): Identity()
  )
  (critic_decoder): MlpDecoder(
    (mlp): Identity()
  )
  (critic_linear): Linear(in_features=512, out_features=1, bias=True)
  (action_parameterization): ActionParameterizationContinuousNonAdaptiveStddev(
    (distribution_linear): Linear(in_features=512, out_features=4, bias=True)
  )
)
[2024-07-07 15:41:04,750][1043860] Using optimizer <class 'torch.optim.adam.Adam'>
[2024-07-07 15:41:06,923][1043909] Worker 1 uses CPU cores [1]
[2024-07-07 15:41:06,983][1043908] Worker 12 uses CPU cores [12]
[2024-07-07 15:41:08,211][1043901] Worker 6 uses CPU cores [6]
[2024-07-07 15:41:08,403][1043050] Heartbeat connected on Batcher_0
[2024-07-07 15:41:08,427][1043905] Worker 4 uses CPU cores [4]
…
